results/cross_source_transfer/advanced/best_bert_cls.pt (torch, 965028 bytes, 16 tensors)

net.0.weight f4 [256, 768]
000000 e0 25 28 3d 91 02 af 3c 9c 62 d1 3c 8e 9b 1f 3d
       0.041051745 0.021363528 0.025559716 0.038966708
000010 01 b4 fd bb ab 11 ca bc 7e ea dd bc c4 9d a6 3c
       -0.0077424054 -0.024666628 -0.027089354 0.0203389
000020 2b 59 8e 3d 8d 12 52 bd 33 23 2e 3d 99 f1 1e 3d
       0.06950601 -0.051287223 0.042514037 0.038804624
000030 df 02 81 3d 2e 2d 1d bc ae 94 b6 3c ef fb 4a 3d
       0.06299376 -0.009593291 0.022287693 0.04955667
000040 57 e8 27 3d ec 84 90 3c a0 4e 6a ba 7f 91 ae 3c
       0.04099306 0.017641507 -0.00089381076 0.021309612
000050 93 d7 00 bd f8 55 15 bd ec dc 25 bd 71 6a 13 3d
       -0.031455588 -0.03645894 -0.04049389 0.035990182
000060 27 3c 41 bd 72 54 83 bc 23 b4 55 3c 89 ff 7e bc
       -0.047176506 -0.016031478 0.013043436 -0.015563854
000070 86 8f 93 3c 23 de 6b bd 94 62 93 3c d9 1b 4c bd
       0.018012773 -0.057584893 0.017991342 -0.049831245
000080 12 a3 ae 3c 4d 65 99 bc da 19 de 3b df 06 35 3d
       0.021317992 -0.018725062 0.006777984 0.044196006
000090 f9 1c 36 3c df 10 cc ba 09 f9 b6 bc c0 5d 88 bc
       0.011115306 -0.0015568993 -0.022335546 -0.016646266
0000a0 c0 54 38 bc a6 f9 00 bd 90 b6 d4 ba b9 cc 0b 3d
       -0.011250675 -0.031488083 -0.0016228724 0.034130786
0000b0 c1 5e 03 3b 42 13 e0 bc c6 20 c9 3c d3 9f 62 3c
       0.0020045491 -0.027352933 0.02455176 0.01383205
0000c0 b9 8d 00 3d 8a 52 a9 bc 42 de 08 bd 52 86 3c bc
       0.031385157 -0.02066924 -0.033415087 -0.011506634
0000d0 c5 5d 36 bd 14 b6 3d 3c 01 e4 0e 3c f3 52 53 3d
       -0.04452302 0.011579055 0.008721353 0.05159278
0000e0 2a 0d 63 b9 17 de b4 bc 9e 4b ce 3c 20 82 1b bd
       -0.00021653311 -0.022078557 0.025182541 -0.037965894
0000f0 c7 06 d5 bc 70 83 18 bd 5f 8a e4 bc 7b 6a 8a bc
       -0.026004208 -0.037234724 -0.027898012 -0.016896477
000100 33 41 29 3b ef 75 dd bb 24 ef 58 3d 7f f2 03 bd
       0.0025826215 -0.0067584435 0.052962437 -0.032213684
000110 7f db df 3b b8 48 ea bc 33 51 34 3d 58 a3 2b 3c
       0.006831586 -0.028599128 0.04402275 0.010475956
000120 8a 78 a7 3c 5d 9b 98 bc ec c7 85 bd 3e 41 07 bd
       0.02044322 -0.01862877 -0.06532273 -0.033021204
000130 e8 92 f2 bb c5 70 fe 3c fb 33 b8 3c 73 d0 84 3d
       -0.0074027665 0.031059632 0.022485724 0.06485071
000140 00 a1 eb bc 82 c7 30 bd ad c9 4c 3c 76 62 f1 3a
       -0.028763294 -0.043159015 0.012499255 0.0018416184
000150 3d 53 da 3c a2 bc a7 3c 79 7f 8f 3c 33 10 25 bd
       0.02665102 0.02047569 0.017516838 -0.040298652
000160 b1 5c 8f ba 47 2c 21 bd 45 d4 a3 3c a8 5d 60 bd
       -0.0010937658 -0.039348867 0.019998679 -0.054776818
000170 6e 97 64 3c c0 f0 55 3d 33 38 05 bc e7 18 9d 3c
       0.013952119 0.05223155 -0.008131075 0.019176913
000180 72 ee c8 3c b0 eb c9 bc 59 9f 26 bd 48 8f d9 bb
       0.024527762 -0.024648517 -0.04067931 -0.006639395
000190 68 83 05 bd 07 9c ed ba 26 65 d0 3b a8 29 0f bb
       -0.032596022 -0.0018128165 0.006359714 -0.0021844897
0001a0 f7 d6 93 3c 36 fa e3 bc 5c b7 34 bd 69 55 3f bd
       0.01804684 -0.02782927 -0.044120178 -0.046712313
0001b0 8d cb c5 bc 22 1a 10 bd 0c 79 81 3d 89 70 93 3c
       -0.024144912 -0.035181172 0.06321916 0.017997997
0001c0 12 e3 c0 3c e3 82 4b bd 47 33 e7 bc aa fb 46 bc
       0.023545776 -0.04968537 -0.028222693 -0.012144962
0001d0 90 6c f6 3c 98 e6 4b bd d3 bb 52 bd de 1a a9 bc
       0.030081064 -0.04978046 -0.051448654 -0.020642694
0001e0 ad 27 18 bd 2e 48 81 bb 00 03 14 3c b2 ac 87 bd
       -0.037147213 -0.003945372 0.009033918 -0.06624736
0001f0 85 c8 8d bc 43 33 38 bc 33 a4 31 3b 8f eb 6f bd
       -0.01730753 -0.0112426905 0.0027105927 -0.058574256
000200 fe 13 80 3c 15 b2 1e bc 4a 25 fd 3c ca 22 a7 bb
       0.015634533 -0.009686013 0.03090157 -0.0051005827
000210 3f 78 d3 bc 8f 78 64 3c 54 5a 9a bc fe 7b 67 39
       -0.025814174 0.013944759 -0.0188419 0.00022076067
000220 fd 9d 6e bd dc ce 50 bd 67 75 d8 3c 0d 6e fb 3c
       -0.058256138 -0.050978526 0.02642317 0.030692125
000230 44 21 c2 3c 3b 05 84 bc c6 19 9c 3c a9 70 f6 bc
       0.023697503 -0.016115775 0.019055258 -0.030083017
000240 2a 21 82 bc 4a fb c6 3c c4 26 4f 3c 93 cf 8c bb
       -0.015884954 0.024289746 0.01264352 -0.0042972057
000250 98 cf 22 3d d0 ae 70 bc 14 35 42 3b d3 7b c5 bb
       0.039748758 -0.014690116 0.0029633688 -0.006026724
000260 20 f3 66 bc f2 e0 9f bc bf 29 a5 3c 29 1e 00 bd
       -0.014096051 -0.019516442 0.020161508 -0.031278763
000270 33 f4 c4 bc 5a ef 5c 3d 50 50 00 3d b7 39 b0 ba
       -0.024042225 0.0539392 0.031326592 -0.0013444935
000280 28 ef 97 3a 22 70 ed bb 9d b2 9f 3a b3 5c 46 bc
       0.001159166 -0.0072460333 0.0012183968 -0.012107062
000290 d9 86 c5 3c 13 9a 77 bc 43 71 db 3c b8 c4 27 3c
       0.024112152 -0.015112418 0.026787406 0.0102397725
0002a0 6e 5b 10 ba 01 e4 f9 bc cb 68 ae bc 0d 98 24 bd
       -0.0005506788 -0.030504229 -0.021290204 -0.04018407
0002b0 16 11 26 bc db e3 2f bc 68 9f 17 bd 82 c2 e7 bc
       -0.01013591 -0.010735477 -0.037017256 -0.02829099
0002c0 47 77 b3 bc 2d 8b 8a bc 91 ab e7 3c 41 41 f6 bc
       -0.021907462 -0.016912067 0.028280051 -0.030060412
0002d0 d1 10 ee 3b 66 56 3e 3d 0a b2 1f bd 7d 4d 5f bc
       0.0072651883 0.046469115 -0.03898815 -0.0136293145
0002e0 af ee 8a 3c a1 de 75 3d b6 b9 e0 3c 2d fa 17 bd
       0.016959516 0.06002677 0.027432304 -0.03710382
0002f0 39 24 5c bd 0e 4d e7 3c 49 86 fe bb 4d 54 68 bc
       -0.053745482 0.028234985 -0.007767473 -0.014180255
000300 19 8e af 3c 92 0d 2c 3d 3e df 32 3b de 5d 0a bd
       0.021430062 0.04200513 0.0027293707 -0.033780925
000310 28 a4 27 bb 70 bc 27 bc 2b 8c 99 bc 29 bd aa 3c
       -0.0025580022 -0.010237798 -0.018743595 0.020842152
000320 5e c1 75 bd a0 f8 80 3c 6e 87 0f 3d 90 f8 57 3a
       -0.059998862 0.015743554 0.035041265 0.0008238638
000330 71 c4 90 3c 67 a7 f1 bb 85 2b 64 3c a6 a7 7f bd
       0.017671796 -0.0073746922 0.0139263915 -0.06241574
000340 38 36 87 3c c5 a6 80 bc 22 3d cd 3c 1f fc 20 3c
       0.016505346 -0.015704522 0.025053564 0.009825735
000350 42 8e 44 bd 5a 04 17 bc 1b 14 36 ba 97 e4 08 bb
       -0.04798723 -0.009217346 -0.0006945745 -0.0020888203
000360 33 9b 17 3d 73 0a 82 3b 75 fa 83 ba 2d b8 6a bb
       0.037013244 0.003968531 -0.0010069149 -0.0035815344
000370 c5 89 e2 bc a3 27 ac 3c c8 94 a8 3c f1 aa af bb
       -0.027653584 0.021014994 0.020578757 -0.005360954
000380 44 ba 35 bd d6 50 7c 3d 32 24 d5 3c fb 54 86 3b
       -0.04436709 0.06160053 0.026018236 0.004099486
000390 44 ff a9 bc 8d da fc bc fa d8 eb bc 9b 43 27 3d
       -0.020751603 -0.030865932 -0.028789986 0.040835958
0003a0 e6 26 ab 3b 8a 96 c7 3b dc 7e 88 3a d4 c5 da bb
       0.005223143 0.0060909437 0.0010413784 -0.006676415
0003b0 2e 91 1e 3c 04 61 29 bd a3 6f 34 bd 18 ea 06 bd
       0.009678168 -0.041352287 -0.044051778 -0.032938093
0003c0 f6 4a d1 3b d4 df cc bb b7 63 7d bb 2e 36 26 bd
       0.00638711 -0.0062522683 -0.003866417 -0.040579014
0003d0 16 2a ed bc 36 8b 8a bd d8 ad a3 3c fa d1 dc 3c
       -0.028950732 -0.06764834 0.019980356 0.026955593
0003e0 9b aa 14 3c 63 1d 13 3d 33 6a 46 bc f0 08 26 bd
       0.009073879 0.035916697 -0.012110281 -0.040535867
0003f0 fe ab 65 bc 17 a4 ca bc 6a 7a ae 3a 33 07 53 bc
       -0.014018057 -0.024736447 0.0013311629 -0.012880134

net.0.bias f4 [256]
000000 88 41 a1 3c 42 7e c7 3c ab c0 7c 3c 48 b1 4e 3c
       0.019684568 0.024352197 0.015426795 0.012615509
000010 46 e4 f7 3c c1 74 34 bc 1e 41 9f 3c 99 c6 2f bc
       0.030260216 -0.011014164 0.01944023 -0.010728502
000020 32 53 ec bb c3 f2 8f bc 4e 57 22 bc 2d 02 be 3c
       -0.007212066 -0.017571812 -0.00990851 0.023194397
000030 49 3d c8 3c b9 56 39 bc bb 23 8f 3c b0 b8 a8 bc
       0.024443286 -0.01131218 0.017473092 -0.020595878
000040 eb 71 86 3c 17 5b 89 bc c8 ff d5 bc f5 9b ab 3c
       0.016411742 -0.016767068 -0.026122943 0.02094839
000050 56 43 79 bc 8e d8 f5 3c 90 7d 02 bd 39 a8 e4 3c
       -0.015213808 0.030010488 -0.031858027 0.027912246
000060 1a cb 41 3b 44 5f 05 3d 60 b9 d8 bc c3 80 bb 3c
       0.002957052 0.032561556 -0.026455581 0.022888547
000070 4e df 44 3a e8 12 2d 3c 92 62 12 bd b0 57 fa bc
       0.00075100816 0.01056359 -0.035738535 -0.03055939
000080 88 46 f9 bc 1d ff 9d 3c c6 f3 ca bc 0d 98 71 bb
       -0.03042914 0.019286687 -0.024774443 -0.003686431
000090 26 5d 40 bc 0d 54 5b bc 44 d4 f3 3c c4 c6 be bb
       -0.011740958 -0.0133867385 0.029764302 -0.0058220346
0000a0 a3 13 10 3d eb 17 9b bc 4d 0b a7 3c b2 cd 2c bc
       0.035174977 -0.018932303 0.02039113 -0.010547088
0000b0 82 fb 04 bc 9c 36 b7 3c 35 d5 f9 bc c8 5f 0c bd
       -0.008116605 0.022364907 -0.030497173 -0.03427103
0000c0 0e 0d 87 3c 36 c2 d9 bc ce ed 10 bd cc 05 4d 3c
       0.016485717 -0.026581865 -0.03538304 0.012513589
0000d0 83 4b dd bc 39 3f ba bc 32 4c 94 bb 79 af 4e 3c
       -0.027013546 -0.022735225 -0.0045256848 0.012615078
0000e0 3e e6 94 bb 8a 4d f9 bc 10 7b fa 3c 13 52 84 3c
       -0.0045440486 -0.030432481 0.030576259 0.016152417
0000f0 94 01 88 b8 e3 41 bf bc 75 45 06 bd 34 ec a3 bb
       -6.485279e-05 -0.023346847 -0.032781083 -0.005002523
000100 4c 05 13 bc bf 65 09 bc a8 81 aa 3a 00 2a ce 3c
       -0.008973431 -0.008386075 0.0013008611 0.025166512
000110 95 8c f2 3a f2 76 09 bd a1 f2 c9 bb f4 ca b8 3c
       0.0018505031 -0.0335607 -0.006162957 0.022557713
000120 cb e4 10 3b 61 7b 17 3c b9 23 82 bb 0d bb 24 3c
       0.0022109027 0.009245724 -0.0039715436 0.010054362
000130 a0 2a d6 3c f9 31 92 bc 3f 14 a3 3c dd 95 2d bc
       0.026143372 -0.017846094 0.019907115 -0.010594812
000140 47 42 63 3c 6f 61 3f bb a0 8f ff 3c ed 10 cb 3c
       0.013870782 -0.0029202362 0.031196415 0.024788344
000150 cc c7 c1 3c 03 16 05 bd b9 3e 0e bd a8 e4 31 bc
       0.02365484 -0.032491695 -0.034727786 -0.010857739
000160 eb fb ee bb b8 c3 3c 3c 7e cd 84 bc 6f 45 7b 3c
       -0.0072932146 0.011521272 -0.016211268 0.0153363785
000170 c5 75 b8 bc 97 06 a7 3c 90 8d 9a bc ca 64 c2 bc
       -0.022517094 0.020388884 -0.01886633 -0.0237297
000180 93 c6 03 3b 00 db 45 3c 91 a9 3c 3c 58 f0 c3 3c
       0.0020107373 0.012076139 0.011515037 0.023918316
000190 92 9f 03 bc 1a 02 9f 3c 96 a1 fc 38 52 94 2a 3c
       -0.00803365 0.019410182 0.00012046394 0.010411339
0001a0 7e 90 e4 3b c1 55 7e 3b fd 0e 31 bc 06 71 3c bb
       0.0069752326 0.0038808438 -0.010806796 -0.002875389
0001b0 84 78 ed bb f9 a8 ff 3b 24 6c c6 3c 32 08 94 3c
       -0.0072470326 0.0078021255 0.024221487 0.018070314
0001c0 73 aa 08 3d c9 6a 46 3c 65 44 cb bc 7b 32 47 3c
       0.033365678 0.0121104205 -0.024812886 0.012158032
0001d0 1f 99 7d bb 9c 65 5d 3c 13 e3 c3 3c 25 99 05 bc
       -0.0038696004 0.013512995 0.023911988 -0.008154188
0001e0 28 23 c9 3a 00 95 6d 3c d6 5e 02 bd 80 7b 13 3d
       0.001534556 0.014500856 -0.031828724 0.03600645
0001f0 f9 6a e8 bc 40 74 d9 bc 5c cb 03 bd e8 83 ee 3c
       -0.028371321 -0.02654469 -0.03217636 0.029115632
000200 e3 2f 62 bc fb ed 90 bc b1 eb dd 3c 59 a2 47 3c
       -0.013805362 -0.017691603 0.027089925 0.012184703
000210 05 40 0e bd bf 96 31 3c 64 9f f4 3c 53 94 6f 3c
       -0.034729023 0.010839163 0.02986116 0.014622766
000220 67 3f 97 3c 99 e4 fe bb 97 b1 00 bc 47 5b 51 3b
       0.01846285 -0.007778716 -0.007854841 0.0031945275
000230 a3 60 09 3d b7 a6 04 3d 48 88 d7 3c b3 ae 3f bc
       0.033539426 0.032385554 0.026310101 -0.011699366
000240 12 ec 6f 3c 4e 2c f2 bb fa b5 e9 3c 4c 13 12 ba
       0.014643686 -0.0073905354 0.028529156 -0.00055723335
000250 ca a5 ea 3c a8 82 04 bd f3 43 11 bd 11 b4 52 3c
       0.028643508 -0.032351166 -0.035465192 0.012860314
000260 09 c0 07 bd 71 ce f0 3b 59 4a 03 3d a1 52 df 3c
       -0.033142123 0.0073488285 0.032053325 0.02726108
000270 54 06 1a 3c f7 ea 07 3d 66 1c 9a 39 74 5b ef 3c
       0.009400923 0.033183064 0.00029394327 0.029218413
000280 74 35 80 bc f2 b5 97 bc 6e 8a c5 bb ea fb a3 bc
       -0.015650488 -0.018519375 -0.006028465 -0.020017583
000290 6d df dd bc e1 1a 50 bc cd e0 06 bd 86 b0 90 bc
       -0.027084077 -0.012701721 -0.03292923 -0.017662298
0002a0 90 e7 f2 3c 90 64 82 bc 51 fd 10 3b 30 c6 94 bb
       0.029651433 -0.015917093 0.0022123645 -0.0045402274
0002b0 cd fd 8e 3a 9e ce f1 bb 5a 75 ca bc c2 6b e8 3b
       0.0010909379 -0.007379367 -0.02471416 0.007092924
0002c0 89 bc 06 3d eb 88 86 3b e7 7b a5 bc aa 6c 37 bc
       0.032894645 0.0041056774 -0.020200683 -0.011195341
0002d0 f9 15 8b 3a 8a 00 10 3d c7 dc cb bc 1c 55 fe bc
       0.0010611407 0.035156764 -0.024885548 -0.031046443
0002e0 b9 a2 0b 3d f2 88 51 bc 12 a6 27 3a 82 43 08 bd
       0.03409073 -0.012788998 0.0006395291 -0.033267505
0002f0 15 b0 a4 3c a9 3f 8d bb 50 47 cf bb 0d ed a7 bc
       0.020103494 -0.0043105674 -0.00632564 -0.020498777
000300 24 0f ae 3c f3 a0 be bc e1 fd ee 3c 3e 78 81 bc
       0.021247454 -0.023270106 0.029173793 -0.015804406
000310 4a 9b a1 3c ce f2 ad 3c d1 d6 04 3d 07 f7 2c bc
       0.019727368 0.021233942 0.032431427 -0.010556943
000320 b7 04 cb bc cf 91 e6 3b 0d 75 2f bc f3 b0 f5 ba
       -0.024782522 0.0070364247 -0.010709059 -0.0018744752
000330 6b c6 9b bb c0 c1 91 bc a7 8c fa b9 a4 c8 f3 bc
       -0.004753878 -0.017792583 -0.0004778851 -0.029758759
000340 6a ad d4 3c ef 16 91 3c fb bf 23 bb c1 bf 5a bc
       0.025961597 0.01771113 -0.0024986255 -0.013351382
000350 d1 87 de bc de 3d 19 3c ba 75 ae bc 65 32 94 bb
       -0.027164372 0.009353129 -0.02129637 -0.004522609
000360 f2 69 ee 3a 3f 09 ac 3c 41 40 aa bc 1b 80 c4 3c
       0.0018189533 0.021000503 -0.020782592 0.023986867
000370 dc 2c 71 bc 2e 7c d3 3c c5 cc 1e bc 6c 32 11 bc
       -0.014720168 0.02581605 -0.009692376 -0.008862119
000380 f0 b4 00 bd f1 b3 14 bc 5e 18 86 bc 24 fb 2e 3c
       -0.031422555 -0.0090761045 -0.016369041 0.010679994
000390 31 31 71 bc 26 43 aa 3c ed f3 55 bc 21 6b a1 3c
       -0.014721201 0.020783972 -0.013058645 0.019704403
0003a0 44 77 9a 3b 02 dd 01 bd 1a 8e 0d bd 27 a6 69 bc
       0.0047139246 -0.03170491 -0.034559347 -0.014260805
0003b0 8a 38 6b bc 7e d4 21 3c 48 6a d7 bb e2 38 77 bc
       -0.014356742 0.009877322 -0.006573949 -0.0150892455
0003c0 8a 58 1b 3c a9 83 ef 3a 8e 55 03 bd 6f b7 0d bd
       0.009481559 0.0018273491 -0.032064013 -0.034598764
0003d0 30 eb f2 3b ce 23 6d ba 1e 92 71 bc 0a 37 7e 3c
       0.0074132904 -0.0009046168 -0.01474431 0.015516052
0003e0 1b 54 dc ba a6 d3 19 3a fb 58 01 3d 44 eb 9c 3b
       -0.0016809733 0.0005868025 0.031579 0.004788788
0003f0 50 d6 85 3c ae 75 59 bc 10 5e 0a 3d b4 06 5b 3c
       0.016337544 -0.013272686 0.03378111 0.013368297

net.1.weight f4 [256]
000000 36 46 86 3f b9 85 81 3f 26 54 81 3f 5b e9 7b 3f
       1.0490177 1.0118934 1.0103805 0.9840295
000010 b5 60 84 3f 14 3d 81 3f 47 24 83 3f 96 67 77 3f
       1.0342013 1.0096765 1.0245446 0.96642435
000020 70 74 79 3f ee 84 78 3f 60 49 7d 3f db 2f 78 3f
       0.97443295 0.97077835 0.98940086 0.9694802
000030 cd a6 7f 3f 3f 75 82 3f c5 30 7b 3f 5b 8a 83 3f
       0.9986389 1.0192031 0.9812129 1.0276598
000040 8e 21 70 3f bd db 81 3f 04 bf 82 3f ab a7 81 3f
       0.938012 1.0145184 1.0214543 1.0129293
000050 51 0a 7d 3f a6 7f 7b 3f 2b 8d 73 3f f7 01 7d 3f
       0.98843867 0.9824165 0.9513728 0.98831123
000060 6a 51 80 3f 0d 5b 84 3f 99 f8 82 3f 40 a9 77 3f
       1.0024846 1.0340286 1.0232116 0.9674263
000070 b9 4e 83 3f 14 03 81 3f 3a 23 82 3f 00 fc 87 3f
       1.0258399 1.0079064 1.0167 1.0623779
000080 19 c7 78 3f 33 b7 80 3f be 0d 7e 3f 71 9f 74 3f
       0.971788 1.0055908 0.9923972 0.9555579
000090 57 b9 80 3f 26 93 84 3f f9 e4 81 3f 28 54 7f 3f
       1.0056561 1.0357406 1.0148002 0.9973779
0000a0 7f ec 82 3f 92 7b 7a 3f 40 77 76 3f 7c 6b 7a 3f
       1.0228423 0.97844803 0.9627571 0.9782026
0000b0 ba 07 80 3f f9 b7 80 3f 24 44 83 3f 41 6d 80 3f
       1.0002358 1.0056144 1.025517 1.0033342
0000c0 5e fd 7c 3f 1e dc 73 3f 45 c5 84 3f f3 9f 7e 3f
       0.9882411 0.9525775 1.0372702 0.99462813
0000d0 df 1a 7d 3f bd 79 79 3f 9f 62 82 3f 24 ce 7b 3f
       0.9886913 0.9745138 1.0186347 0.9836142
0000e0 da 29 81 3f 48 8b 82 3f 81 b0 82 3f 3d f9 79 3f
       1.0090897 1.0198755 1.0210115 0.9764593
0000f0 ae 09 7d 3f a9 ec 76 3f 74 05 7f 3f 8c 8b 77 3f
       0.98842895 0.96454865 0.99617696 0.96697307
000100 8c fe 83 3f 26 65 81 3f 27 d1 81 3f 91 41 7c 3f
       1.0312057 1.0108993 1.0141953 0.98537546
000110 6e 36 83 3f 66 a9 77 3f 94 1d 78 3f 31 0c 7e 3f
       1.0250986 0.96742857 0.9692013 0.9923735
000120 e3 56 7d 3f e3 a8 7f 3f e8 b4 84 3f fb f8 82 3f
       0.98960704 0.99867076 1.0367708 1.0232233
000130 b0 46 82 3f d2 19 74 3f 49 eb 76 3f f9 89 82 3f
       1.0177822 0.953519 0.96452767 1.0198356
000140 fc 90 83 3f 84 da 75 3f b2 aa 81 3f 82 10 81 3f
       1.0278621 0.96036553 1.0130217 1.0083163
000150 63 b6 7e 3f 81 ab 7e 3f 0c a0 7d 3f 20 73 7b 3f
       0.9949705 0.99480444 0.9907234 0.9822254
000160 21 c8 7b 3f 42 1f 7e 3f 90 a5 7d 3f b7 3b 84 3f
       0.9835225 0.99266446 0.99080753 1.0330724
000170 a5 2e 83 3f ae eb 74 3f 90 39 80 3f 46 b1 81 3f
       1.024861 0.9567212 1.0017567 1.0132225
000180 6c bb 7c 3f ea 30 84 3f 77 24 81 3f 5c 0e 6f 3f
       0.98723483 1.0327427 1.0089253 0.93381286
000190 c1 b9 7f 3f 26 85 7b 3f d7 a8 80 3f 7f 58 83 3f
       0.9989281 0.98250043 1.0051526 1.0261382
0001a0 d1 3e 7f 3f f7 10 76 3f c1 ce 7d 3f 3a 4e 84 3f
       0.99705225 0.96119636 0.99143606 1.0336373
0001b0 a4 ec 78 3f fd a5 80 3f 86 7d 79 3f 38 bb 72 3f
       0.97236085 1.0050656 0.9745716 0.94816923
0001c0 65 dc 7a 3f 24 54 7f 3f e4 54 85 3f 29 26 74 3f
       0.97992545 0.99737763 1.0416532 0.9537073
0001d0 59 91 76 3f be 48 83 3f da 01 81 3f 80 7f 75 3f
       0.9631553 1.0256574 1.007869 0.95897675
0001e0 a4 53 80 3f d8 2c 79 3f 19 ce 84 3f 4a 14 80 3f
       1.0025525 0.9733405 1.0375396 1.0006192
0001f0 39 89 82 3f a4 0e 7f 3f b4 be 84 3f 6f 5b 83 3f
       1.0198127 0.99631715 1.0370698 1.0262278
000200 6a 23 82 3f c5 e5 84 3f 19 ec 80 3f 4f cf 78 3f
       1.0167058 1.038262 1.0072051 0.9719133
000210 8f 19 83 3f 9e b2 7b 3f 14 e9 82 3f 2f f4 83 3f
       1.0242175 0.98319423 1.022738 1.0308894
000220 18 41 75 3f 14 38 83 3f ec 92 80 3f 37 e1 81 3f
       0.9580245 1.0251489 1.0044837 1.0146855
000230 7f 3d 82 3f 37 91 81 3f 5a 37 80 3f 76 08 81 3f
       1.0175017 1.0122441 1.0016892 1.0080707
000240 8c 15 80 3f 04 30 7f 3f 46 e2 83 3f 33 50 7a 3f
       1.0006576 0.9968264 1.0303428 0.97778624
000250 dd d5 7b 3f 13 25 82 3f 27 1a 81 3f a6 e9 7d 3f
       0.98373204 1.0167564 1.0086106 0.99184644
000260 80 34 7e 3f e1 24 83 3f bd c6 81 3f ad 67 81 3f
       0.9929886 1.024563 1.0138775 1.0109764
000270 85 54 7f 3f d1 67 76 3f bd a6 7d 3f 91 62 85 3f
       0.9973834 0.9625216 0.9908255 1.0420705
000280 af 2a 84 3f a4 eb 80 3f c9 16 76 3f a7 a7 80 3f
       1.0325526 1.0071912 0.9612852 1.0051163
000290 12 bc 7e 3f 21 2b 7d 3f a8 9d 83 3f 68 50 73 3f
       0.9950572 0.98893934 1.0282488 0.95044565
0002a0 f9 29 80 3f dd 1e 7c 3f 70 64 81 3f 22 8b 71 3f
       1.0012809 0.98484594 1.0108776 0.94352925
0002b0 90 6a 80 3f bc 58 80 3f 76 88 7f 3f 03 b4 82 3f
       1.003252 1.002708 0.998176 1.0211185
0002c0 2a d2 7f 3f 82 86 80 3f 04 3f 81 3f 7d 5e 77 3f
       0.9993006 1.0041049 1.0097356 0.9662855
0002d0 c1 bb 7f 3f 6b 06 80 3f b1 20 79 3f 59 03 82 3f
       0.99895865 1.0001959 0.9731551 1.0157272
0002e0 59 bd 7c 3f bb 10 71 3f 9e dc 82 3f af c6 81 3f
       0.9872642 0.94166154 1.0223577 1.0138758
0002f0 54 6a 6c 3f 45 55 80 3f e6 db 85 3f c0 2b 79 3f
       0.92349744 1.0026022 1.0457733 0.9733238
000300 13 ec 80 3f 2b bc 82 3f 5c 9a 74 3f a2 be 7f 3f
       1.0072044 1.0213674 0.95548034 0.9990026
000310 1e 96 7a 3f 5c 32 7f 3f 16 85 7a 3f 54 61 7f 3f
       0.9788531 0.9968622 0.97859323 0.99757886
000320 ba 11 76 3f c4 c9 83 3f aa 5d 7a 3f 79 48 7d 3f
       0.961208 1.0295949 0.9779917 0.9893871
000330 ef 36 79 3f ad 93 7e 3f a4 2f 82 3f 17 fe 81 3f
       0.97349447 0.99444085 1.0170789 1.0155667
000340 89 85 71 3f 84 9c 80 3f 73 0c 7e 3f 29 ce 76 3f
       0.94344383 1.0047765 0.99237746 0.96408325
000350 20 34 84 3f b2 da 83 3f 3a f7 81 3f ec 21 7f 3f
       1.0328407 1.0301116 1.0153573 0.99661136
000360 d9 b9 7c 3f 33 ac 7e 3f bc 7f 82 3f 0c 7b 81 3f
       0.9872108 0.99481505 1.0195231 1.0115676
000370 ea b8 81 3f 3c a0 81 3f 88 ef 84 3f 77 39 83 3f
       1.0134556 1.0127025 1.0385599 1.0251912
000380 16 70 7a 3f b4 1b 7d 3f 9a 64 72 3f 91 a5 7c 3f
       0.9782728 0.98870397 0.94684756 0.98690134
000390 63 cc 7d 3f 5f e2 7e 3f 9b 6f 86 3f d1 55 81 3f
       0.99139994 0.99564165 1.0502809 1.0104314
0003a0 e1 b6 74 3f 95 07 80 3f 16 44 86 3f 7e a5 80 3f
       0.9559155 1.0002314 1.0489528 1.0050504
0003b0 78 17 85 3f d8 17 80 3f c5 8f 83 3f 93 a8 7e 3f
       1.0397787 1.0007277 1.027825 0.99475974
0003c0 6f 9f 82 3f a8 f6 7b 3f e0 f4 76 3f 21 6e 82 3f
       1.0204905 0.9842324 0.964674 1.0189859
0003d0 ad 09 74 3f de 21 7b 3f 0e 93 81 3f 06 9d 81 3f
       0.95327264 0.9809855 1.0123003 1.0126045
0003e0 6f b1 82 3f c3 10 81 3f 9b b9 72 3f c2 b8 84 3f
       1.0210398 1.008324 0.9481446 1.0368884
0003f0 8b 37 7d 3f d7 05 75 3f 30 e7 80 3f bf 60 80 3f
       0.98912877 0.95712036 1.0070553 1.0029525

net.1.bias f4 [256]
000000 ce a3 c6 bb 25 e7 58 bc b5 02 28 bd e5 80 a6 bc
       -0.0060620075 -0.013238703 -0.041018207 -0.020325134
000010 5b 55 80 bc 95 bd f4 bb e2 ad d2 bc 8a 1f b4 bc
       -0.0156657 -0.007468889 -0.02571768 -0.021987695
000020 02 5f 4b bc 80 ef 9a bc b6 f1 ed bc 14 c3 12 bd
       -0.012412788 -0.01891303 -0.02904592 -0.035830572
000030 83 1b e1 bc 19 aa 30 bd 96 10 bd bc ec de 08 bc
       -0.027478939 -0.043130968 -0.023079198 -0.00835393
000040 b0 76 24 bd a2 7f 8c bc 69 7e 8e 3c 50 06 0f bd
       -0.04015225 -0.017150704 0.017394261 -0.03491813
000050 19 4a 89 bd 6e ee 3e bd c3 ba 3e bd 02 5a 30 bd
       -0.06703586 -0.046614103 -0.04656483 -0.04305459
000060 2a e2 f8 bb 7d 7f 68 3b f9 ad 4a 3a b7 8d f5 ba
       -0.00759532 0.003547638 0.00077316124 -0.0018734251
000070 03 3c 38 bd 26 96 1c bc 31 3c 08 bd 53 bd a3 bb
       -0.044979107 -0.009557283 -0.033260528 -0.0049969344
000080 70 33 35 bd 0a cf 67 bc 1d 05 26 bd 1e e5 0a bd
       -0.044238508 -0.014148483 -0.04053222 -0.03390991
000090 05 f3 65 bc ec 4c 86 3c 91 37 74 bb 07 cc 8b bc
       -0.014034991 0.016394101 -0.0037264565 -0.017065061
0000a0 75 bc 71 bc 04 1b 13 bd 8a 90 07 bd 53 e9 d2 bb
       -0.014754404 -0.035914436 -0.033096828 -0.006436506
0000b0 d6 1d d1 ba 34 c3 ed bc 7f 9e 12 bd 67 bc d4 bb
       -0.0015954326 -0.029023744 -0.035795685 -0.006492186
0000c0 8a 09 2a bc 11 68 46 bd b3 9b 43 3a ec 84 08 bd
       -0.010378251 -0.04843909 0.00074618607 -0.03332989
0000d0 c8 ac b3 bc b0 fa 1e bd 56 f3 c0 bc 48 3b 24 bd
       -0.021932974 -0.038813293 -0.023553532 -0.040095598
0000e0 ac 60 8b bc 86 e2 96 bb 41 fb 47 bd e7 b8 af bc
       -0.01701387 -0.0046046404 -0.0488236 -0.021450473
0000f0 b7 45 b9 bc 52 1a f7 bc 5c 53 e5 bc c4 d1 c4 bc
       -0.02261625 -0.030163918 -0.02799385 -0.024025805
000100 0e 82 f4 bc b2 11 3e bc ff e2 e7 3c 2e da 19 bd
       -0.029847171 -0.011600899 0.028306482 -0.037561588
000110 ed 77 b0 bc cc 57 36 bd 38 e7 28 bd 08 8d 1f bd
       -0.02154156 -0.044517323 -0.041236132 -0.038952857
000120 3b a2 4a bd 38 9e ec 3b 58 88 13 bd 91 11 c7 bc
       -0.04947112 0.0072210096 -0.0360187 -0.024300369
000130 b1 eb e7 bc 36 9d 62 bd 06 dc 00 bd 9c 64 7a bc
       -0.028310629 -0.05532571 -0.03145983 -0.015282776
000140 f6 65 0a bc e8 3b fc bc c6 85 9d bb 8a fe be bc
       -0.008447161 -0.030790284 -0.004807207 -0.023314733
000150 13 aa 85 3b cc d9 14 bd 4d 5c 03 bc a0 b7 9d ba
       0.0040791123 -0.03634052 -0.008017612 -0.0012032874
000160 a3 37 4e bc 52 ae 57 bd 6e 47 83 bc e9 3a 72 ba
       -0.012586507 -0.05265648 -0.016025271 -0.00092403457
000170 1d 87 87 3b be a6 78 bd ab 9c a8 bc 18 0d 9d bc
       0.00413598 -0.060705893 -0.020582518 -0.019171283
000180 f6 36 dd bc 5f 9e 3b bc dd 7c c0 bc 12 18 38 bd
       -0.027003746 -0.011451333 -0.02349704 -0.04494483
000190 3d b1 84 bc 6c 0b d1 bc 26 1d dc bc 73 84 06 bc
       -0.016197795 -0.025518142 -0.026869368 -0.008210289
0001a0 98 e9 31 bd 47 16 4b bd aa 88 2f bd 74 4e 0a bd
       -0.043435663 -0.049581792 -0.042854942 -0.033766225
0001b0 02 a5 0f bc 76 5c af 3a 31 78 c4 bc 5c c3 85 bd
       -0.008767368 0.0013378996 -0.023983093 -0.065314025
0001c0 7d 32 d5 bc b7 b3 11 bc 7f 35 2a bc 3a 4e ba bc
       -0.026025051 -0.008892945 -0.010388731 -0.02274238
0001d0 e2 e5 cd bc 9d 9c f7 bc 4e 48 3d bc 9f 63 36 bd
       -0.02513403 -0.030226046 -0.011552883 -0.0445286
0001e0 0e c0 df bc b4 c5 02 bd 46 cc 2e bd af af 72 bc
       -0.027313258 -0.031926826 -0.04267528 -0.014812394
0001f0 b0 54 81 bc c3 b6 d9 bc 38 bc 84 bc f6 08 d0 3a
       -0.015787452 -0.026576405 -0.016203031 0.0015871811
000200 7d e1 7d bc 09 5c 8d 3c 80 7f 30 bc 48 90 11 bd
       -0.015495655 0.0172558 -0.010772586 -0.035537988
000210 a8 e8 71 bd 8c f8 22 bc 1b ff c0 3b 99 0a 55 bb
       -0.05905977 -0.0099469535 0.005889786 -0.0032507537
000220 b6 56 40 bd ca 31 14 ba 10 95 4a bd 10 d9 46 3c
       -0.046957694 -0.0005653171 -0.049458563 0.012136713
000230 f3 eb 75 bc 4f ff b2 bc 52 8a b5 bc 6d f4 2e 3b
       -0.015009868 -0.021850256 -0.022160683 0.0026695982
000240 4c 7c d7 bc 0b f2 ad bc f8 64 6d bc 08 02 d6 bb
       -0.026304387 -0.02123358 -0.014489405 -0.006531004
000250 52 7b 2e 3b eb 98 a4 3b 54 27 cf bc 47 e3 96 bc
       0.0026623798 0.005023112 -0.025287308 -0.018418921
000260 ff f0 ab bc 0f 3f 05 3c 5e 9e 3a bd 40 c2 a2 bc
       -0.02098894 0.00813271 -0.045561187 -0.019868016
000270 f7 14 c0 3b 0d ce 59 bd 24 a0 80 3c 79 a2 f4 bc
       0.005861874 -0.05317502 0.015701361 -0.02986263
000280 a7 7b f8 bc 09 08 88 bc 4a d3 26 bd 6c 4a db 3b
       -0.0303324 -0.016605394 -0.040728845 0.0066922214
000290 18 6c f3 bc 21 b2 d3 bb 2c 23 f7 b9 e8 e4 16 bd
       -0.029714629 -0.0064604436 -0.00047137716 -0.036839396
0002a0 c6 24 9a bc 9d 48 9c 3a d7 1c 78 bc b3 df 90 bd
       -0.018816363 0.0011923496 -0.015143595 -0.07073917
0002b0 2c e4 d9 bc fa 32 71 bc d5 0f fd bc c5 ad f7 3a
       -0.026598059 -0.014721626 -0.030891338 0.0018896392
0002c0 83 18 bb bc 82 91 6a bb e6 5c da bc fc fd 01 bd
       -0.022838837 -0.0035792296 -0.026655626 -0.03173636
0002d0 ab 71 9a bc 63 ed 8c bc f5 fa b5 bc 0c 78 7f bb
       -0.01885303 -0.017203039 -0.022214392 -0.0038981466
0002e0 7d 01 76 bc 41 8d 5f bd ab 56 a7 bc a3 9b 5a 3c
       -0.015015003 -0.05457807 -0.020427069 0.013342771
0002f0 f5 ac 94 bd 61 74 46 bc d8 e9 74 ba bc ee 0e bc
       -0.072595514 -0.012112708 -0.0009342707 -0.008723911
000300 32 89 c0 ba d7 5d 28 bc d1 5d 04 bd e7 0e 32 bc
       -0.0014689325 -0.010276279 -0.032316033 -0.010867811
000310 27 a8 6e bc 1c dc 29 bd 89 44 ec bc e1 a8 11 bd
       -0.014566458 -0.04146968 -0.028841274 -0.035561446
000320 43 4e b4 bc c2 53 a4 bb ec c0 dd bc b4 b5 8c bc
       -0.022009974 -0.0050148675 -0.027069531 -0.017176487
000330 2c b1 2f bc 49 99 05 3c 8c ea 4d bc 6b 0b 19 bc
       -0.010723393 0.008154222 -0.012568127 -0.009341101
000340 d6 cd 75 bd 40 15 17 bd de c0 8e bc 5e ff 9d bc
       -0.060010754 -0.0368855 -0.01742595 -0.019286808
000350 38 91 e6 bc f2 f3 03 3b 91 db f0 bc 2d da e4 bc
       -0.028145418 0.0020134416 -0.029401572 -0.027936066
000360 ff 3c 4f bc 57 a8 9a bc 16 95 d5 3b 1d 0e ee bc
       -0.01264882 -0.018879099 0.0065180166 -0.029059464
000370 f3 2f af bb 79 3d c9 bc fe 8c b1 3b 90 7e 21 3a
       -0.005346292 -0.024565445 0.005418419 0.0006160522
000380 f3 70 17 bd e1 1e 3d bc d6 fc 89 bd 51 42 28 bd
       -0.03697295 -0.011543007 -0.06737678 -0.04107887
000390 5b e4 fa 3b 06 3b db bc 5e 8d d6 ba 32 ce e5 ba
       0.0076566166 -0.026761543 -0.0016369035 -0.0017532764
0003a0 5c 20 67 bd b9 7d 4c bd fe 9f c8 bb d7 40 7b bc
       -0.056427345 -0.049924586 -0.006122588 -0.015335283
0003b0 b5 ca 79 3b e0 ee 49 bd aa 2a 93 bb 1c 0c d4 bb
       0.0038115208 -0.049300075 -0.00449117 -0.00647117
0003c0 9b 2f 99 bc 55 3e 2f bd ac 26 94 bb 5c 88 43 bc
       -0.018699458 -0.042784054 -0.0045212116 -0.011934366
0003d0 29 db 1c bd 4d 7e a6 bc bc 53 0b bd 5e 40 07 bc
       -0.038294945 -0.020323897 -0.034015402 -0.008255092
0003e0 eb af 20 bc 7e d8 e6 bc a6 d7 77 bd 70 be 07 bc
       -0.009807567 -0.028179403 -0.060508393 -0.00828515
0003f0 52 02 af bc ee 06 3a bd 92 ce ea bc 37 af 0f bd
       -0.021363411 -0.045416765 -0.028662954 -0.035079207

net.1.running_mean f4 [256]
000000 b8 1c 8c 3d af a4 13 bd a5 18 aa bc ea 43 3b 3e
       0.06841415 -0.036045726 -0.020763705 0.18287626
000010 9a a6 30 3e a3 4b c9 3a f3 d5 b2 bc b9 27 7c bd
       0.17251053 0.0015357625 -0.021830535 -0.06156132
000020 02 bd fe 3c a1 29 c3 3d 96 d6 87 bd 74 90 cb bd
       0.031095985 0.095294245 -0.06632726 -0.099396616
000030 9e ec a2 bd c2 19 c4 3d 4c a8 fa bc ed 29 99 3d
       -0.079552874 0.095752254 -0.030597828 0.074787
000040 44 3c d3 bd fd b8 31 3d 47 1f f7 3d 85 6e 8b bc
       -0.10314229 0.04338931 0.120665126 -0.017020473
000050 ab 05 ee 3d fd e6 22 bc db 49 7e 3e 39 7a 67 3c
       0.11622175 -0.009942767 0.24832861 0.014128261
000060 05 ba 64 3b d6 09 13 be 32 26 75 bd 23 6d d8 bb
       0.0034900915 -0.14359221 -0.05985088 -0.006604807
000070 dc ad 5e 3b 8a 34 13 3d 3e d6 61 bd 24 a5 5e bd
       0.003397814 0.035938777 -0.055135958 -0.05435671
000080 b8 e1 16 3e 0d 77 40 bd b8 f0 5e 3d 4d fd ce 3d
       0.14734542 -0.046988536 0.054428786 0.10106907
000090 b4 26 2a be f2 da b0 bd 3e a0 88 3c 5b cc 4e bc
       -0.16616327 -0.086355105 0.016677972 -0.012621964
0000a0 36 a9 0b 3d 0e 88 61 bd c6 ee 34 3d 28 c5 ad bc
       0.03409692 -0.055061392 0.044173025 -0.021212175
0000b0 93 95 8e 3d ad 9f 5d bd 32 9f 16 be 81 81 cb bd
       0.06962123 -0.054107357 -0.14709166 -0.0993681
0000c0 e9 bc ee 3d 2a d3 20 bc dc a6 cd bd e3 00 8a 3d
       0.116571255 -0.00981597 -0.100415915 0.067384504
0000d0 9b 09 84 bd 62 90 47 be c5 df 0d bd e9 c6 b7 3d
       -0.064471446 -0.19488671 -0.03463723 0.08973486
0000e0 0e ab 42 3e 96 5d 53 be 42 f1 81 3d dc 55 19 be
       0.19010565 -0.20641169 0.063448444 -0.14974159
0000f0 aa 0c c6 3d 9c dc fd 3d 5e 09 50 be fa 39 0c be
       0.09670384 0.123955935 -0.20316073 -0.13693991
000100 d5 f8 cb bd 8b dd b7 3d a8 0b 85 bd a1 a5 d7 3d
       -0.0995957 0.08977803 -0.06496364 0.10529638
000110 6c 60 dd 3b 83 b2 95 bb 09 9d 7d bd 82 b8 91 bd
       0.006755879 -0.0045683994 -0.06191734 -0.0711527
000120 54 28 a4 bd c3 e7 d9 bb 60 00 b0 bd d6 71 af 3d
       -0.080155045 -0.0066499426 -0.085938215 0.08566634
000130 a7 25 73 3b 12 f9 09 3e a0 80 68 be 3f 3b a3 bd
       0.00371013 0.13473919 -0.22705317 -0.07970285
000140 be eb 22 be 82 19 0f 3c a7 7e 49 3e ee ce 07 3e
       -0.15910241 0.008734109 0.1967722 0.13262531
000150 99 63 a0 3d ab 48 cb bc ff 16 b8 bc 32 90 aa 3b
       0.07831497 -0.024814924 -0.022471903 0.0052051777
000160 04 2c c2 3b 28 11 26 3d 10 34 cc 3d b2 bb cc bd
       0.005925657 0.040543705 0.09970868 -0.099967375
000170 d6 6a cd bd 0a 24 8d 3d 5b 6e 1f 3d 53 f1 8a bd
       -0.10030143 0.068916395 0.038923603 -0.0678431
000180 99 2a d0 3d 3d ab 04 bd b2 fa ee 3d b3 24 bb 3d
       0.10164375 -0.032389868 0.1166891 0.09137859
000190 7d a6 1d be 3a 6e 2c 3e e7 ba a3 bd 37 f3 5e 3d
       -0.15395541 0.16838923 -0.07994633 0.054431166
0001a0 e7 35 84 ba 71 94 27 be f0 c9 a8 3c fe a8 fe 3c
       -0.0010086865 -0.1636522 0.020604104 0.031086441
0001b0 68 fc fa bd d3 c3 e8 3d dd b8 9b bc 59 1f 97 3d
       -0.12255174 0.113654755 -0.019009048 0.07379026
0001c0 63 ab 10 3c 05 e2 0f 3d b1 09 5e bd bf a1 bf 3d
       0.008829924 0.03512766 -0.05420846 0.093570225
0001d0 94 7c e7 3c 8a a6 84 bd 90 a5 82 3d d6 c6 ee 3d
       0.028257646 -0.06477077 0.06379235 0.11659019
0001e0 bd be cd bd d1 bf c8 3d 55 27 d0 3b a4 d4 1b 3d
       -0.10046146 0.09802211 0.006352345 0.038044587
0001f0 76 7a f3 bd 69 36 44 bd a5 0f b5 bb d4 e2 8b 3b
       -0.11888592 -0.047903452 -0.0055255466 0.0042689834
000200 ac 04 4e bd 30 51 03 3d 69 b7 f1 bc 27 c6 a9 bb
       -0.050297424 0.03205985 -0.029506402 -0.0051810923
000210 78 60 2e be 2d 89 fd 3d 26 c7 18 3e 01 36 d6 3d
       -0.17028987 0.1237968 0.14919719 0.10459519
000220 70 89 21 be 02 a2 dd bd 46 ce 0e be 81 b0 56 bd
       -0.15775084 -0.10821916 -0.13945875 -0.05241442
000230 88 9f 5f bd 47 27 7d 3d 76 69 aa 3d bb 1f 6d bd
       -0.0545955 0.061805036 0.08320896 -0.05789159
000240 e9 73 e8 3c c9 e6 f1 bc 57 6c 1b 3e 61 91 42 be
       0.028375583 -0.029528992 0.15178047 -0.1900077
000250 dc 2c 4e bd fd f2 09 3c 71 dc aa bd 62 10 bc 3c
       -0.05033575 0.008419749 -0.08342827 0.02295703
000260 2b 91 6e bd 63 a6 b6 3d 63 f9 04 3e 38 6a 6a 3d
       -0.05824391 0.089184545 0.12985758 0.057230204
000270 0c 55 94 3d 20 6f fc 3d d8 07 79 3d 32 39 57 3d
       0.07242784 0.12325883 0.060798496 0.05254478
000280 2e 43 20 3c e4 70 cb bc 58 ff d4 bd b8 73 bf bd
       0.009781642 -0.024834104 -0.104002655 -0.093482435
000290 68 9c 2c be 7f fd 0f 3d fe 63 a0 3d 4e 7a 02 bd
       -0.16856539 0.035153862 0.07831572 -0.03185492
0002a0 00 49 8b 3d aa 20 b6 3d b9 70 df 3c 50 55 e8 bd
       0.06801033 0.08892949 0.02727543 -0.11344397
0002b0 7e 24 5d bd cb 28 80 bd 31 e0 b9 bc db b7 e7 bd
       -0.05398988 -0.06257781 -0.02268991 -0.113143645
0002c0 d4 6c 12 bd 53 10 3e be 7c e9 0b 3e 0d 88 0a be
       -0.035748318 -0.18560915 0.13663286 -0.13528462
0002d0 02 38 9f 3d 5e 53 a3 3d 8f 8a c8 bd f5 c5 2f bd
       0.077743545 0.079748854 -0.09792053 -0.042913396
0002e0 8a e5 df 3d 89 67 70 be 2f 22 30 3d 77 7c df 3c
       0.10932453 -0.23476996 0.04300135 0.02728103
0002f0 9e d1 a1 3d f6 03 76 be bf 8e 07 be 99 69 39 bc
       0.079013094 -0.24024948 -0.13238047 -0.01131668
000300 8c 84 80 3e f9 95 59 bd 7d d6 a0 bd 19 65 90 bd
       0.25101125 -0.05312154 -0.078534104 -0.07050533
000310 c2 59 e2 3a ff 88 28 3e 87 2d bd 3d 0e 2e f6 bc
       0.0017269182 0.1645851 0.09237199 -0.030051257
000320 76 92 35 be 66 e4 9e 3d 2c 19 37 3d 08 f2 d4 3c
       -0.17731652 0.07758407 0.04470174 0.025994316
000330 43 d0 f2 bd 08 e8 3d be 3e f7 88 be 07 c5 95 3d
       -0.11856129 -0.18545544 -0.2675113 0.073129706
000340 c2 3b a6 3d 72 8f 11 3d 6c a3 9a 3d e0 e7 73 bb
       0.08116867 0.03553719 0.075507015 -0.0037217066
000350 82 48 10 be fd 84 26 3e 60 9d 9b 3d 84 f4 88 bd
       -0.1409016 0.16261669 0.07598376 -0.06687263
000360 7d 1e d2 3d 9c aa 44 bc e9 2b 3c 3d 9e 02 5e 3c
       0.102597214 -0.012003567 0.045940313 0.013550429
000370 00 31 96 bd 3e 43 15 bb c1 a1 ae 3c 01 8a 89 3d
       -0.07333565 -0.0022775675 0.021317365 0.06715775
000380 2a 75 25 3d 5a 0a 00 be cf e1 8c 3d df 77 a4 bb
       0.04039494 -0.12503949 0.06879007 -0.0050191726
000390 00 56 e3 3d b1 01 5a bd e5 37 c4 bb 2f 30 31 bd
       0.111003876 -0.05322427 -0.0059881085 -0.043258842
0003a0 ea 89 6b 3d ee 42 15 be e2 5b ef bc 15 05 db bc
       0.057504572 -0.14576313 -0.029218618 -0.026735822
0003b0 fc 11 9e bd 8a fe 52 bd ab 1d a3 bd 50 59 a2 3d
       -0.07718274 -0.05151228 -0.07964643 0.07927191
0003c0 12 ed f6 bc 4c 4b 4b 3b ab b0 06 be a8 d6 51 bb
       -0.03014234 0.0031020222 -0.13153331 -0.0032018814
0003d0 f8 80 14 bc 1d 81 4a bd 20 d3 01 3e 78 6b 07 3d
       -0.009063952 -0.04943954 0.12678194 0.033061475
0003e0 4f b8 a9 3d e9 60 ba 3d 07 50 be 3d 4e 6f 52 bd
       0.08287107 0.091005154 0.09292608 -0.05137568
0003f0 5f db 5f 3e b9 5c 7a bc 2c 1f 85 3d 50 49 14 3d
       0.21861027 -0.015280896 0.06500086 0.03620273

net.1.running_var f4 [256]
000000 78 51 5c 40 b8 d9 0f 40 73 a3 57 40 47 f4 55 40
       3.4424725 2.2476635 3.3693511 3.3430345
000010 d5 58 f0 3f af 8d 53 40 dd 1f a0 40 15 f8 75 40
       1.8777109 3.3055227 5.0038896 3.8432667
000020 6c 84 c8 40 d0 9d ec 40 34 7e 24 40 0e 5d bc 40
       6.266165 7.394264 2.5702028 5.886359
000030 16 63 50 40 70 1d 87 40 d0 bf 8b 40 5c ef 53 40
       3.2560477 4.2223434 4.3671646 3.3114843
000040 ce 97 95 40 ee ac e0 40 da 3b cb 40 08 1f 76 40
       4.674781 7.0211096 6.351056 3.845644
000050 36 ce c6 40 53 85 80 40 9f 1c 0b 41 37 9c 78 40
       6.212672 4.016275 8.694488 3.8845346
000060 91 77 4d 40 04 5e 46 40 ae f3 3c 40 54 d7 8f 40
       3.2104228 3.0994883 2.952373 4.495035
000070 d0 aa 62 40 2d a9 1f 40 79 ee 65 40 f8 c8 95 40
       3.5416756 2.4947007 3.5926802 4.6807823
000080 18 e4 87 40 1b 92 2a 40 51 3c 27 40 67 7b 70 40
       4.2465935 2.6651676 2.6130564 3.757532
000090 53 13 93 40 69 fd 88 40 9f db 7f 40 0b fd 76 40
       4.596109 4.280934 3.9977796 3.8591945
0000a0 2b 7a 13 40 b8 c7 46 40 8b 11 c2 40 17 f2 f6 40
       2.3043315 3.1059399 6.0646415 7.717052
0000b0 35 1d 38 40 1f 87 40 40 08 35 49 40 33 39 dd 40
       2.8767827 3.0082471 3.1438618 6.9132323
0000c0 19 71 f7 40 45 a8 cf 40 ac 24 2b 40 69 28 6b 40
       7.732556 6.4892907 2.6741133 3.6743414
0000d0 9d 5d a4 40 b3 f0 95 40 1f 91 f6 3f 5f c9 fd 40
       5.1364274 4.685632 1.9263037 7.9308314
0000e0 f1 47 94 40 55 c0 c4 40 fc 8d a3 40 0d 9d 04 41
       4.633782 6.148478 5.111082 8.288342
0000f0 91 2f 3f 41 46 f2 ee 40 b7 67 d6 40 0b 1f e4 40
       11.949113 7.4670744 6.7001605 7.1287894
000100 5b 81 82 40 17 70 aa 40 b3 50 d4 40 be 12 87 40
       4.0782905 5.326183 6.634851 4.221038
000110 09 10 f5 3f 11 e0 d6 40 cb c6 9d 40 da 4f a9 40
       1.9145519 6.714852 4.9305167 5.2909975
000120 ba c9 da 40 83 ab 91 40 9c 37 60 40 b6 68 16 40
       6.837125 4.5521865 3.5033941 2.350141
000130 78 30 1e 40 87 02 58 40 53 eb fe 40 0e 0b 40 40
       2.4717083 3.3751543 7.966226 3.0006747
000140 9e 6f 43 40 c7 f6 5a 40 f4 e3 24 40 b2 8f 8f 40
       3.0536876 3.421312 2.5764132 4.486291
000150 c8 0f 8b 40 7d 7d eb 3f 3e d8 26 40 59 74 5f 40
       4.3456764 1.8397671 2.6069484 3.4914763
000160 b5 bd 69 40 8d ae a3 40 61 f2 ad 40 4b 6b cf 3f
       3.6522038 5.1150575 5.4358373 1.6204618
000170 35 1f 1c 40 52 43 57 40 df ee 30 40 c6 39 b8 40
       2.4394047 3.363484 2.7645795 5.7570524
000180 d1 08 75 40 66 13 8e 40 13 79 4f 40 20 39 2d 41
       3.828663 4.439868 3.2417648 10.826447
000190 6c 3b 5a 40 c0 59 b7 40 6b fc de 3f c5 f3 10 40
       3.4098768 5.729706 1.7420782 2.2648785
0001a0 2d 89 4c 40 85 79 9e 40 a4 19 5b 40 80 be 82 40
       3.1958725 4.952334 3.42344 4.0857544
0001b0 19 ee 02 41 17 8e 29 40 ce 72 b4 40 09 43 39 40
       8.183129 2.6492975 5.6390142 2.8947165
0001c0 3b 1d 2c 40 9c 30 b3 40 bd f1 e1 3f 5d ba 82 40
       2.689284 5.599684 1.7651898 4.0852494
0001d0 26 68 16 40 85 56 2d 40 13 0a 8c 40 4e fd 52 40
       2.3501067 2.7084057 4.37623 3.2967105
0001e0 a4 26 46 40 f9 72 b3 40 05 52 c7 40 b4 3b 8b 40
       3.0961084 5.6077847 6.228762 4.351038
0001f0 f0 02 81 40 01 e4 2d 40 2c 5a 43 40 9b e1 8c 40
       4.0316086 2.7170413 3.0523787 4.4025397
000200 64 22 92 40 81 8a 11 40 42 78 ee 40 96 be 60 40
       4.566698 2.2740786 7.45218 3.5116324
000210 a1 21 5f 40 e8 53 09 41 c8 0f 2e 40 d1 b2 9e 40
       3.4864275 8.582985 2.7197132 4.959328
000220 04 03 92 40 98 bb ef 3f 6c a1 9e 40 28 b0 b8 40
       4.562868 1.8729124 4.957205 5.7715034
000230 04 76 1b 40 41 e8 8b 40 f9 d7 6e 40 e0 78 40 40
       2.429078 4.3721013 3.731932 3.0073776
000240 af 1e e5 40 b4 76 29 40 f9 d1 54 40 e4 21 97 40
       7.1599956 2.64787 3.3253157 4.722887
000250 71 79 89 40 66 17 96 40 a4 46 0b 40 80 dd 2a 40
       4.2960744 4.6903563 2.1761866 2.6697693
000260 3c 4f 8f 40 82 9b fb 40 9c 6a b8 40 ad 61 cb 40
       4.478422 7.862733 5.763014 6.3556733
000270 ab 76 b8 40 dc bd b0 40 14 65 7f 40 8f 78 47 40
       5.764486 5.523176 3.9905443 3.1167333
000280 2c a2 4b 40 8c ae 83 40 d1 74 8f 40 d8 09 c6 40
       3.1817732 4.115057 4.48301 6.1887016
000290 7d 0f 92 40 4a 64 bc 40 e1 07 97 40 ad 78 d8 40
       4.5643907 5.8872423 4.719712 6.764731
0002a0 0a a8 69 40 d9 b9 4d 40 c4 a0 40 40 eb a8 99 40
       3.6508813 3.2144682 3.0098124 4.80187
0002b0 63 c8 26 40 a5 13 76 40 f8 f6 b2 40 6a 8d 26 40
       2.6059806 3.844949 5.5926476 2.6023812
0002c0 07 f5 8f 40 a2 1a c1 40 f0 ec 4f 40 c8 72 bb 40
       4.4986606 6.034501 3.2488365 5.8577614
0002d0 92 19 cc 40 eb 91 b7 40 32 0f 8e 40 2d 0c bb 40
       6.3781214 5.7365623 4.439355 5.8452363
0002e0 c0 c8 8f 40 cc 4b e5 40 bd 28 82 40 06 b0 8b 40
       4.4932556 7.1655025 4.067473 4.365237
0002f0 c7 b6 9b 40 62 23 80 40 50 22 41 40 d6 db c0 40
       4.8660617 4.004319 3.0177193 6.0268354
000300 d5 46 cd 40 2f 99 91 40 8b 5a 77 40 e4 f2 6a 40
       6.4148965 4.549949 3.8649013 3.6710749
000310 e7 9a a7 40 df 92 49 40 12 21 43 40 d7 9a 5b 40
       5.237659 3.1495893 3.0488935 3.4313257
000320 c2 fd 9f 40 87 90 03 41 7c d3 c8 40 7a 3d 0f 41
       4.9997263 8.222785 6.275816 8.952509
000330 94 b6 f5 40 c0 88 d8 40 4d c3 9e 40 b6 c3 0f 40
       7.6785374 6.766693 4.9613404 2.2463202
000340 d7 4f 84 40 dc 40 39 40 1f 35 67 40 67 29 fa 40
       4.134746 2.8945837 3.6126173 7.817554
000350 3f 91 84 40 3b d0 a0 40 7b 96 46 40 9c b6 3f 40
       4.14273 5.0254188 3.1029346 2.9955206
000360 fd ac c2 40 bd 80 f0 40 5c a0 03 40 3b d9 3f 40
       6.0836167 7.515715 2.0566626 2.9976337
000370 19 35 1a 40 0f d6 aa 40 79 73 f6 3f d1 77 2f 40
       2.4094908 5.33863 1.925399 2.741688
000380 c2 16 21 41 29 70 75 40 4c 48 c5 40 44 ff 8c 40
       10.068056 3.8349707 6.1650753 4.4061604
000390 2e 87 7c 40 22 e4 87 40 03 f9 2d 40 85 ba 36 40
       3.9457507 4.2465982 2.7183235 2.8551342
0003a0 3a 0e 39 40 85 fa 2d 40 98 48 6b 40 19 a6 c4 40
       2.8914933 2.7184155 3.6763058 6.1452756
0003b0 5e a3 2e 40 60 7e 14 40 22 6a 6c 40 a7 4d 3c 40
       2.7287211 2.3202133 3.6939778 2.9422395
0003c0 02 14 6d 40 ad cb ad 40 26 0d ad 40 09 f0 71 40
       3.7043462 5.431113 5.407855 3.7802756
0003d0 ec 41 1a 41 3d 2f 4f 40 43 a6 ae 40 43 08 6d 40
       9.641094 3.2372582 5.4577956 3.7036293
0003e0 a6 f5 9d 40 24 21 9c 40 ed a5 42 40 3b 9e 58 40
       4.9362364 4.8790455 3.0413773 3.3846576
0003f0 7c df 9a 40 ba f9 d1 40 bc d6 91 40 15 49 b2 40
       4.839781 6.561734 4.5574627 5.571421

net.4.weight f4 [128, 256]
000000 f9 ed 33 bd 88 0d 24 3b 0c 00 14 3d 3d 1b 0e bc
       -0.04392812 0.002503248 0.036132857 -0.008673486
000010 8d 14 30 3b 17 de 59 3d c7 26 31 3d f0 1d ac 3c
       0.0026867718 0.053190317 0.04324987 0.021010369
000020 c0 36 23 3d ef e9 27 3c 00 1f 8d 3d aa b6 81 3d
       0.039847136 0.010248645 0.068906784 0.063336685
000030 1c 63 94 bd 56 48 fc bb 20 f0 02 bd 78 af f5 3c
       -0.07245466 -0.007699053 -0.031967282 0.029990897
000040 f4 e2 9c 3d 97 2d d7 bc 82 84 40 bd f5 34 35 3b
       0.076604754 -0.026266856 -0.04700137 0.0027649973
000050 18 56 e6 3c e9 13 64 bb 98 91 a4 bc f6 ed c2 3b
       0.028117225 -0.0034801906 -0.020088956 0.0059487773
000060 84 0d be 3c 6b b3 fd bc d5 af 52 bd 4c 3e 5e bc
       0.023199804 -0.030969342 -0.051437218 -0.013564657
000070 00 ff 02 bd 03 e2 09 3c aa bf 2c bc d3 2f 09 bd
       -0.03198147 0.008415702 -0.010543743 -0.033492874
000080 b3 b8 91 3c f0 f3 b8 3c 67 03 fe bb 67 d0 3c 3d
       0.017788267 0.022577256 -0.0077518704 0.046097185
000090 3c 72 9d bc 1c b5 4e 3d 64 15 82 bc 5d 57 97 3c
       -0.01921951 0.050465688 -0.01587934 0.018474275
0000a0 19 fb 63 3d 3c d7 bf bc db af 53 3c f1 ae 2c 3d
       0.055659387 -0.023418061 0.012920345 0.042159025
0000b0 01 77 aa bb c6 61 7f 3c f6 88 04 bc f3 5e 44 3d
       -0.0052021747 0.015587276 -0.008089295 0.047942113
0000c0 ca 1c 59 bc b0 b1 d8 3c dd 51 49 bb ce 38 c8 bb
       -0.013251493 0.026451916 -0.003071896 -0.0061102873
0000d0 65 cb cb bb ee 36 07 bd 49 9d 5d 3c 9c 54 75 3d
       -0.006219315 -0.03301137 0.013526269 0.059895143
0000e0 1a ac 9c bc b6 11 7f 3c 2a d5 63 3d 8e 35 be bc
       -0.019125033 0.015568187 0.05562321 -0.023218896
0000f0 3b 97 4e bc d7 b5 05 3c 7d 56 8e 3d e4 d5 86 bd
       -0.012609298 0.00816103 0.0695009 -0.06583765
000100 c1 61 51 bd ef 6c 91 bc 70 7d 11 3d 4f 61 b9 bd
       -0.051118616 -0.017752139 0.035520017 -0.09051763
000110 63 b0 a3 b8 df 1f db bc 2f f3 82 3c e5 da 91 3d
       -7.8053e-05 -0.026748596 0.0159851 0.07121829
000120 2d 3f 49 bc 78 98 0d bd 84 a7 c2 3c 57 2d 89 3d
       -0.012283129 -0.034569234 0.023761518 0.06698101
000130 59 af 21 bb 81 55 c9 3c 18 08 21 bd 83 d9 e1 bc
       -0.0024671166 0.024576904 -0.03931436 -0.027569538
000140 f1 d9 cf 3a 06 2c e5 3b e7 b4 d2 3d 54 f0 2f 3d
       0.0015857798 0.0069937734 0.10288411 0.042953804
000150 38 f1 31 bd 00 eb 52 3d 6d 94 99 3d d1 07 94 bc
       -0.043442935 0.051493645 0.07499013 -0.018070133
000160 34 c5 35 b9 3d 43 e9 3c 90 78 2c 3d 3d 31 4d bd
       -0.00017334969 0.028474445 0.042107165 -0.050095785
000170 80 e4 38 bc 5d c3 80 3d 8b e4 87 3d 92 a3 a3 3b
       -0.011284947 0.062872626 0.06635388 0.0049938643
000180 9a cd 83 bd e6 9c 87 3d 21 4c aa 3d 4d c9 40 3d
       -0.064357 0.06621723 0.08315302 0.047066975
000190 11 59 d1 bc 7e 47 76 3d 91 b8 b1 bd 9f 07 b1 3c
       -0.025555165 0.060126774 -0.086777814 0.02161008
0001a0 b4 27 87 bb 49 ee 5a 3d 87 53 d0 3c 19 ee f8 3c
       -0.004124606 0.053449903 0.025430454 0.030386971
0001b0 dc 36 e6 bc a9 0a a0 3d db ca 00 bc d2 a4 73 3d
       -0.02810233 0.07814533 -0.0078608645 0.059483357
0001c0 c5 70 53 3d e7 09 6d 3d 41 22 9a bc ab 7d 65 bb
       0.051621217 0.05787077 -0.018815162 -0.003501753
0001d0 3e de 76 3c dd 01 b8 3c 72 f4 84 bb d6 c1 c7 bc
       0.015067635 0.022461826 -0.0040574605 -0.02438442
0001e0 39 06 b9 3b c0 54 29 3a 1e ce bf bc a2 d3 5c 3d
       0.0056464938 0.0006459467 -0.023413714 0.053912766
0001f0 b9 b3 3a 3d a7 8d 3f bd 71 c1 d5 bb f1 d0 1e bd
       0.045581553 -0.04676595 -0.006523304 -0.03877348
000200 77 c7 3c 3d 4f ea 1f bd d0 2e 96 3d 38 8b dc 3c
       0.046088662 -0.039041813 0.073331475 0.026921853
000210 84 3b 0a 3d ea 20 1c bd 1a e6 74 3d 24 9d 74 3d
       0.033748165 -0.038117327 0.059789754 0.059720173
000220 fa 7f bd 3a 4e e7 ff bb 9d 33 9c bc 54 f5 b6 bc
       0.0014457696 -0.007809556 -0.01906758 -0.022333778
000230 7e ff d7 3c 9b 2a 3d bd c8 a8 53 3d 49 b0 41 3c
       0.026366945 -0.04618321 0.051674634 0.011821815
000240 48 9f b0 3c ec 26 2f 3b 41 cd f2 3b ef 1e 74 bd
       0.021560326 0.002672608 0.007409722 -0.059599813
000250 5d 2d 30 bc 8f 8f e2 bb 3c f3 87 bc 70 07 bc bc
       -0.010753003 -0.006914086 -0.016595475 -0.022952765
000260 03 14 33 bc 68 1e d9 bc 15 57 55 bc 0e e0 6c 3d
       -0.010930064 -0.026503757 -0.01302125 0.057830863
000270 d5 49 87 3b 8b fd 94 bc a2 8d 27 bc 45 c7 f5 bc
       0.0041286745 -0.018187305 -0.010226639 -0.030002246
000280 7d 62 81 3d 8a 93 8f bc d5 02 07 3d e0 dd 09 bd
       0.06317613 -0.017526407 0.032961685 -0.033658862
000290 5b b1 77 3d ed 38 a6 3b b7 f7 5b 3d d5 1e 5d 3d
       0.060471874 0.005072704 0.053703036 0.05398448
0002a0 ec 2e 88 3d 52 85 a1 3c 74 7e b9 3c 38 77 a5 3b
       0.06649575 0.019716892 0.022643305 0.0050496124
0002b0 2f 69 cf 3c 4a 1b df ba cd 6c 3c bd 60 54 dc 3c
       0.02531871 -0.0017021683 -0.046002198 0.026895702
0002c0 7a 87 89 bd ed f2 64 bd 8a f3 82 3c 00 07 b6 3c
       -0.06715293 -0.055895735 0.01598527 0.022220135
0002d0 5c 11 22 bc 53 49 32 bd ad c8 2f 3d 94 ea 6e 3d
       -0.009891834 -0.04352696 0.04291599 0.05832918
0002e0 53 e0 22 3b 64 f6 46 3d bf 8e e4 bc c7 fc fc 3c
       0.0024852946 0.04857482 -0.027900098 0.030882252
0002f0 58 39 27 3d 0f f9 5d bd e9 72 fb bc c8 c5 02 bd
       0.04082617 -0.0541926 -0.030694442 -0.0319269
000300 a0 82 4a bd a5 f8 90 bd 4a ed 42 bd b3 17 29 bd
       -0.04944098 -0.07078675 -0.047589578 -0.041282367
000310 f2 01 57 bd 77 06 bf 3b 07 7a 45 bd bd cc ec bc
       -0.05249209 0.005829628 -0.048212077 -0.02890622
000320 8e c7 41 bd 3f 8b 6c bc 8e dd 87 3d ec 58 4b bc
       -0.04730945 -0.014437496 0.06634055 -0.012411337
000330 55 13 35 bd 8e 48 03 bc 4f 6d 34 bd c7 88 4c bc
       -0.04420789 -0.008012904 -0.044049557 -0.012483782
000340 02 5d 83 3c 3d 78 12 bd 06 c0 77 3d 54 78 4b bd
       0.01603556 -0.0357592 0.060485862 -0.0496753
000350 5b f4 26 3d 08 28 43 3d ad b8 7a bb a2 0b f1 3c
       0.04076038 0.0476456 -0.0038257048 0.029424492
000360 47 15 bf 3c e8 cb 49 3d 5e 89 11 3c 4e 8c 58 bb
       0.023325576 0.049266726 0.008882849 -0.0033042612
000370 69 c5 75 bc 62 22 d9 bb 45 14 c8 3c 85 68 6e 3d
       -0.0150006795 -0.006626413 0.024423728 0.058205146
000380 4e 7f 5f 3d 72 4d ae bd a2 9a 57 3d 79 81 05 bc
       0.054564767 -0.08510865 0.052637704 -0.0081485445
000390 47 ad 27 3d 66 fc b3 3c 26 c3 5a bd 51 6b 14 3c
       0.040936735 0.021970939 -0.053408764 0.009058789
0003a0 cb 39 ac 3c 02 32 d0 bc a7 25 90 bd e8 38 9c 3c
       0.021023652 -0.02541447 -0.070384316 0.019070104
0003b0 f9 1e 02 3c 80 22 cb bc 14 98 ff 3b 13 80 97 3d
       0.007941955 -0.024796724 0.0078001115 0.07397475
0003c0 7c 81 9f 3d 56 36 5d bd 19 3e 12 3b f1 82 91 bd
       0.07788369 -0.054006897 0.0022314845 -0.07105053
0003d0 33 45 ba 3c 85 4a 17 3d 20 32 a6 3d 3b f5 c4 bc
       0.022738075 0.0369363 0.08115029 -0.024042716
0003e0 53 98 93 3d 27 48 60 bd a7 58 8a 3b 8e a5 30 bc
       0.07206788 -0.05475631 0.004221994 -0.010781659
0003f0 b1 83 7b 3d 1e dd 2c bd 34 e6 7b bd 2f 84 bf bc
       0.061404888 -0.04220306 -0.061498836 -0.02337846
